…
    (5): Linear(in_features=128, out_features=64, bias=True)
    (6): BatchNorm1d(64, eps=1e-05, momentum=0.1, affine=True, track_running_stats=True)
    (7): ReLU(inplace=True)
    (8): Dropout(p=0.5, inplace=False)
    (9): Linear(in_features=64, out_features=5, bias=True)
  )
)

### MODEL SUMMARY ###
===============================================================================================
Layer (type:depth-idx)                        Output Shape              Param #
===============================================================================================
ShuffleNetV2WithCustomHead                    [1, 5]                    --
├─CNNPatchDownscaleHead: 1-1                  [1, 3, 224, 224]          --
│    └─Sequential: 2-1                        [1, 3, 180, 318]          --
│    │    └─Conv2d: 3-1                       [1, 32, 360, 635]         4,736
│    │    └─BatchNorm2d: 3-2                  [1, 32, 360, 635]         64
│    │    └─ReLU: 3-3                         [1, 32, 360, 635]         --
│    │    └─Conv2d: 3-4                       [1, 3, 180, 318]          2,403
├─Sequential: 1-2                             [1, 1024, 1, 1]           --
│    └─Sequential: 2-2                        [1, 24, 112, 112]         --
│    │    └─Conv2d: 3-5                       [1, 24, 112, 112]         648
│    │    └─BatchNorm2d: 3-6                  [1, 24, 112, 112]         48
│    │    └─ReLU: 3-7                         [1, 24, 112, 112]         --
│    └─MaxPool2d: 2-3                         [1, 24, 56, 56]           --
│    └─Sequential: 2-4                        [1, 116, 28, 28]          --
│    │    └─InvertedResidual: 3-8             [1, 116, 28, 28]          7,398
│    │    └─InvertedResidual: 3-9             [1, 116, 28, 28]          7,598
│    │    └─InvertedResidual: 3-10            [1, 116, 28, 28]          7,598
│    │    └─InvertedResidual: 3-11            [1, 116, 28, 28]          7,598
│    └─Sequential: 2-5                        [1, 232, 14, 14]          --
│    │    └─InvertedResidual: 3-12            [1, 232, 14, 14]          43,616
│    │    └─InvertedResidual: 3-13            [1, 232, 14, 14]          28,652
│    │    └─InvertedResidual: 3-14            [1, 232, 14, 14]          28,652
│    │    └─InvertedResidual: 3-15            [1, 232, 14, 14]          28,652
│    │    └─InvertedResidual: 3-16            [1, 232, 14, 14]          28,652
│    │    └─InvertedResidual: 3-17            [1, 232, 14, 14]          28,652
│    │    └─InvertedResidual: 3-18            [1, 232, 14, 14]          28,652
│    │    └─InvertedResidual: 3-19            [1, 232, 14, 14]          28,652
│    └─Sequential: 2-6                        [1, 464, 7, 7]            --
│    │    └─InvertedResidual: 3-20            [1, 464, 7, 7]            167,968
│    │    └─InvertedResidual: 3-21            [1, 464, 7, 7]            111,128
│    │    └─InvertedResidual: 3-22            [1, 464, 7, 7]            111,128
│    │    └─InvertedResidual: 3-23            [1, 464, 7, 7]            111,128
│    └─Sequential: 2-7                        [1, 1024, 7, 7]           --
│    │    └─Conv2d: 3-24                      [1, 1024, 7, 7]           475,136
│    │    └─BatchNorm2d: 3-25                 [1, 1024, 7, 7]           2,048
│    │    └─ReLU: 3-26                        [1, 1024, 7, 7]           --
│    └─AdaptiveAvgPool2d: 2-8                 [1, 1024, 1, 1]           --
├─Sequential: 1-3                             [1, 5]                    --
│    └─Flatten: 2-9                           [1, 1024]                 --
│    └─Linear: 2-10                           [1, 128]                  131,200
│    └─BatchNorm1d: 2-11                      [1, 128]                  256
│    └─ReLU: 2-12                             [1, 128]                  --
│    └─Dropout: 2-13                          [1, 128]                  --
│    └─Linear: 2-14                           [1, 64]                   8,256
│    └─BatchNorm1d: 2-15                      [1, 64]                   128
│    └─ReLU: 2-16                             [1, 64]                   --
│    └─Dropout: 2-17                          [1, 64]                   --
│    └─Linear: 2-18                           [1, 5]                    325
===============================================================================================
Total params: 1,400,972
Trainable params: 1,400,972
Non-trainable params: 0
Total mult-adds (Units.GIGABYTES): 1.36
===============================================================================================
Input size (MB): 10.97
Forward/backward pass size (MB): 149.62
Params size (MB): 5.60
Estimated Total Size (MB): 166.20
…
