…
    (1): Linear(in_features=1280, out_features=128, bias=True)
    (2): BatchNorm1d(128, eps=1e-05, momentum=0.1, affine=True, track_running_stats=True)
    (3): ReLU(inplace=True)
    (4): Dropout(p=0.5, inplace=False)
    (5): CosineClassifier()
  )
)

### MODEL SUMMARY ###
=========================================================================================================
Layer (type:depth-idx)                                  Output Shape              Param #
=========================================================================================================
EfficientNetB0WithCosineHead                            [1, 5]                    --
├─CNNPatchDownscaleHead: 1-1                            [1, 3, 224, 224]          --
│    └─Sequential: 2-1                                  [1, 3, 180, 318]          --
│    │    └─Conv2d: 3-1                                 [1, 32, 360, 635]         4,736
│    │    └─BatchNorm2d: 3-2                            [1, 32, 360, 635]         64
│    │    └─ReLU: 3-3                                   [1, 32, 360, 635]         --
│    │    └─Conv2d: 3-4                                 [1, 3, 180, 318]          2,403
├─Sequential: 1-2                                       [1, 1280, 7, 7]           --
│    └─Conv2dNormActivation: 2-2                        [1, 32, 112, 112]         --
│    │    └─Conv2d: 3-5                                 [1, 32, 112, 112]         864
│    │    └─BatchNorm2d: 3-6                            [1, 32, 112, 112]         64
│    │    └─SiLU: 3-7                                   [1, 32, 112, 112]         --
│    └─Sequential: 2-3                                  [1, 16, 112, 112]         --
│    │    └─MBConv: 3-8                                 [1, 16, 112, 112]         1,448
│    └─Sequential: 2-4                                  [1, 24, 56, 56]           --
│    │    └─MBConv: 3-9                                 [1, 24, 56, 56]           6,004
│    │    └─MBConv: 3-10                                [1, 24, 56, 56]           10,710
│    └─Sequential: 2-5                                  [1, 40, 28, 28]           --
│    │    └─MBConv: 3-11                                [1, 40, 28, 28]           15,350
│    │    └─MBConv: 3-12                                [1, 40, 28, 28]           31,290
│    └─Sequential: 2-6                                  [1, 80, 14, 14]           --
│    │    └─MBConv: 3-13                                [1, 80, 14, 14]           37,130
│    │    └─MBConv: 3-14                                [1, 80, 14, 14]           102,900
│    │    └─MBConv: 3-15                                [1, 80, 14, 14]           102,900
│    └─Sequential: 2-7                                  [1, 112, 14, 14]          --
│    │    └─MBConv: 3-16                                [1, 112, 14, 14]          126,004
│    │    └─MBConv: 3-17                                [1, 112, 14, 14]          208,572
│    │    └─MBConv: 3-18                                [1, 112, 14, 14]          208,572
│    └─Sequential: 2-8                                  [1, 192, 7, 7]            --
│    │    └─MBConv: 3-19                                [1, 192, 7, 7]            262,492
│    │    └─MBConv: 3-20                                [1, 192, 7, 7]            587,952
│    │    └─MBConv: 3-21                                [1, 192, 7, 7]            587,952
│    │    └─MBConv: 3-22                                [1, 192, 7, 7]            587,952
│    └─Sequential: 2-9                                  [1, 320, 7, 7]            --
│    │    └─MBConv: 3-23                                [1, 320, 7, 7]            717,232
│    └─Conv2dNormActivation: 2-10                       [1, 1280, 7, 7]           --
│    │    └─Conv2d: 3-24                                [1, 1280, 7, 7]           409,600
│    │    └─BatchNorm2d: 3-25                           [1, 1280, 7, 7]           2,560
│    │    └─SiLU: 3-26                                  [1, 1280, 7, 7]           --
├─AdaptiveAvgPool2d: 1-3                                [1, 1280, 1, 1]           --
├─Sequential: 1-4                                       [1, 5]                    --
│    └─Flatten: 2-11                                    [1, 1280]                 --
│    └─Linear: 2-12                                     [1, 128]                  163,968
│    └─BatchNorm1d: 2-13                                [1, 128]                  256
│    └─ReLU: 2-14                                       [1, 128]                  --
│    └─Dropout: 2-15                                    [1, 128]                  --
│    └─CosineClassifier: 2-16                           [1, 5]                    640
=========================================================================================================
Total params: 4,179,615
Trainable params: 4,179,615
Non-trainable params: 0
Total mult-adds (Units.GIGABYTES): 1.60
=========================================================================================================
Input size (MB): 10.97
Forward/backward pass size (MB): 226.30
Params size (MB): 16.72
…
