…
    (1): Linear(in_features=576, out_features=128, bias=True)
    (2): BatchNorm1d(128, eps=1e-05, momentum=0.1, affine=True, track_running_stats=True)
    (3): ReLU(inplace=True)
    (4): Dropout(p=0.5, inplace=False)
    (5): CosineClassifier()
  )
)

### MODEL SUMMARY ###
====================================================================================================
Layer (type:depth-idx)                             Output Shape              Param #
====================================================================================================
MobileNetV3SmallWithCosineHead                     [1, 5]                    --
├─CNNPatchDownscaleHead: 1-1                       [1, 3, 224, 224]          --
│    └─Sequential: 2-1                             [1, 3, 180, 318]          --
│    │    └─Conv2d: 3-1                            [1, 32, 360, 635]         4,736
│    │    └─BatchNorm2d: 3-2                       [1, 32, 360, 635]         64
│    │    └─ReLU: 3-3                              [1, 32, 360, 635]         --
│    │    └─Conv2d: 3-4                            [1, 3, 180, 318]          2,403
├─Sequential: 1-2                                  [1, 576, 7, 7]            --
│    └─Conv2dNormActivation: 2-2                   [1, 16, 112, 112]         --
│    │    └─Conv2d: 3-5                            [1, 16, 112, 112]         432
│    │    └─BatchNorm2d: 3-6                       [1, 16, 112, 112]         32
│    │    └─Hardswish: 3-7                         [1, 16, 112, 112]         --
│    └─InvertedResidual: 2-3                       [1, 16, 56, 56]           --
│    │    └─Sequential: 3-8                        [1, 16, 56, 56]           744
│    └─InvertedResidual: 2-4                       [1, 24, 28, 28]           --
│    │    └─Sequential: 3-9                        [1, 24, 28, 28]           3,864
│    └─InvertedResidual: 2-5                       [1, 24, 28, 28]           --
│    │    └─Sequential: 3-10                       [1, 24, 28, 28]           5,416
│    └─InvertedResidual: 2-6                       [1, 40, 14, 14]           --
│    │    └─Sequential: 3-11                       [1, 40, 14, 14]           13,736
│    └─InvertedResidual: 2-7                       [1, 40, 14, 14]           --
│    │    └─Sequential: 3-12                       [1, 40, 14, 14]           57,264
│    └─InvertedResidual: 2-8                       [1, 40, 14, 14]           --
│    │    └─Sequential: 3-13                       [1, 40, 14, 14]           57,264
│    └─InvertedResidual: 2-9                       [1, 48, 14, 14]           --
│    │    └─Sequential: 3-14                       [1, 48, 14, 14]           21,968
│    └─InvertedResidual: 2-10                      [1, 48, 14, 14]           --
│    │    └─Sequential: 3-15                       [1, 48, 14, 14]           29,800
│    └─InvertedResidual: 2-11                      [1, 96, 7, 7]             --
│    │    └─Sequential: 3-16                       [1, 96, 7, 7]             91,848
│    └─InvertedResidual: 2-12                      [1, 96, 7, 7]             --
│    │    └─Sequential: 3-17                       [1, 96, 7, 7]             294,096
│    └─InvertedResidual: 2-13                      [1, 96, 7, 7]             --
│    │    └─Sequential: 3-18                       [1, 96, 7, 7]             294,096
│    └─Conv2dNormActivation: 2-14                  [1, 576, 7, 7]            --
│    │    └─Conv2d: 3-19                           [1, 576, 7, 7]            55,296
│    │    └─BatchNorm2d: 3-20                      [1, 576, 7, 7]            1,152
│    │    └─Hardswish: 3-21                        [1, 576, 7, 7]            --
├─AdaptiveAvgPool2d: 1-3                           [1, 576, 1, 1]            --
├─Sequential: 1-4                                  [1, 5]                    --
│    └─Flatten: 2-15                               [1, 576]                  --
│    └─Linear: 2-16                                [1, 128]                  73,856
│    └─BatchNorm1d: 2-17                           [1, 128]                  256
│    └─ReLU: 2-18                                  [1, 128]                  --
│    └─Dropout: 2-19                               [1, 128]                  --
│    └─CosineClassifier: 2-20                      [1, 5]                    640
====================================================================================================
Total params: 1,008,963
Trainable params: 1,008,963
Non-trainable params: 0
Total mult-adds (Units.GIGABYTES): 1.28
====================================================================================================
Input size (MB): 10.97
Forward/backward pass size (MB): 141.05
Params size (MB): 4.04
…
